…
2024-12-01 18:01:45,516 - INFO - 하이브리드 모델 구축 완료
2024-12-01 18:01:46,240 - WARNING - From G:\anaconda3\envs\tensorflow\Lib\site-packages\keras\src\backend\tensorflow\core.py:204: The name tf.placeholder is deprecated. Please use tf.compat.v1.placeholder instead.

2024-12-01 18:01:46,764 - INFO - 트랜스포머 모델 구축 완료
2024-12-01 18:01:46,774 - INFO - Model: "functional_7"
┌─────────────────────────────────┬────────────────────────┬───────────────┐
│ Layer (type)                    │ Output Shape           │       Param # │
├─────────────────────────────────┼────────────────────────┼───────────────┤
│ input_layer_2 (InputLayer)      │ (None, 10, 45)         │             0 │
├─────────────────────────────────┼────────────────────────┼───────────────┤
│ dense_8 (Dense)                 │ (None, 10, 64)         │         2,944 │
├─────────────────────────────────┼────────────────────────┼───────────────┤
│ add (Add)                       │ (None, 10, 64)         │             0 │
├─────────────────────────────────┼────────────────────────┼───────────────┤
│ transformer_block               │ (None, 10, 64)         │       141,248 │
│ (TransformerBlock)              │                        │               │
├─────────────────────────────────┼────────────────────────┼───────────────┤
│ transformer_block_1             │ (None, 10, 64)         │       141,248 │
│ (TransformerBlock)              │                        │               │
├─────────────────────────────────┼────────────────────────┼───────────────┤
│ transformer_block_2             │ (None, 10, 64)         │       141,248 │
│ (TransformerBlock)              │                        │               │
├─────────────────────────────────┼────────────────────────┼───────────────┤
│ transformer_block_3             │ (None, 10, 64)         │       141,248 │
│ (TransformerBlock)              │                        │               │
├─────────────────────────────────┼────────────────────────┼───────────────┤
│ global_average_pooling1d        │ (None, 64)             │             0 │
│ (GlobalAveragePooling1D)        │                        │               │
├─────────────────────────────────┼────────────────────────┼───────────────┤
│ dropout_16 (Dropout)            │ (None, 64)             │             0 │
├─────────────────────────────────┼────────────────────────┼───────────────┤
│ dense_17 (Dense)                │ (None, 256)            │        16,640 │
├─────────────────────────────────┼────────────────────────┼───────────────┤
│ dropout_17 (Dropout)            │ (None, 256)            │             0 │
├─────────────────────────────────┼────────────────────────┼───────────────┤
│ dense_18 (Dense)                │ (None, 45)             │        11,565 │
└─────────────────────────────────┴────────────────────────┴───────────────┘
 Total params: 596,141 (2.27 MB)
 Trainable params: 596,141 (2.27 MB)
 Non-trainable params: 0 (0.00 B)

2024-12-01 18:01:46,777 - INFO - 
앙상블 모델 처리 시작...
2024-12-01 18:01:46,777 - INFO - 모델 학습 중...
2024-12-01 18:01:46,777 - INFO - 
=== 혼합 모델 학습 시작 ===
2024-12-01 18:01:46,777 - ERROR - 모델 학습 중 오류 발생: too many values to unpack (expected 3)
…
