…
2024-11-30 22:43:56,491 - INFO - 출력 데이터 shape: (19, 45)
2024-11-30 22:43:57,132 - WARNING - From G:\anaconda3\envs\tensorflow\Lib\site-packages\keras\src\backend\tensorflow\core.py:204: The name tf.placeholder is deprecated. Please use tf.compat.v1.placeholder instead.

2024-11-30 22:43:57,668 - INFO - 트랜스포머 모델 구축 완료
2024-11-30 22:43:57,678 - INFO - Model: "functional_4"
┌─────────────────────────────────┬────────────────────────┬───────────────┐
│ Layer (type)                    │ Output Shape           │       Param # │
├─────────────────────────────────┼────────────────────────┼───────────────┤
│ input_layer (InputLayer)        │ (None, 10, 45)         │             0 │
├─────────────────────────────────┼────────────────────────┼───────────────┤
│ dense (Dense)                   │ (None, 10, 64)         │         2,944 │
├─────────────────────────────────┼────────────────────────┼───────────────┤
│ add (Add)                       │ (None, 10, 64)         │             0 │
├─────────────────────────────────┼────────────────────────┼───────────────┤
│ transformer_block               │ (None, 10, 64)         │       141,248 │
│ (TransformerBlock)              │                        │               │
├─────────────────────────────────┼────────────────────────┼───────────────┤
│ transformer_block_1             │ (None, 10, 64)         │       141,248 │
│ (TransformerBlock)              │                        │               │
├─────────────────────────────────┼────────────────────────┼───────────────┤
│ transformer_block_2             │ (None, 10, 64)         │       141,248 │
│ (TransformerBlock)              │                        │               │
├─────────────────────────────────┼────────────────────────┼───────────────┤
│ transformer_block_3             │ (None, 10, 64)         │       141,248 │
│ (TransformerBlock)              │                        │               │
├─────────────────────────────────┼────────────────────────┼───────────────┤
│ global_average_pooling1d        │ (None, 64)             │             0 │
│ (GlobalAveragePooling1D)        │                        │               │
├─────────────────────────────────┼────────────────────────┼───────────────┤
│ dropout_12 (Dropout)            │ (None, 64)             │             0 │
├─────────────────────────────────┼────────────────────────┼───────────────┤
│ dense_9 (Dense)                 │ (None, 256)            │        16,640 │
├─────────────────────────────────┼────────────────────────┼───────────────┤
│ dropout_13 (Dropout)            │ (None, 256)            │             0 │
├─────────────────────────────────┼────────────────────────┼───────────────┤
│ dense_10 (Dense)                │ (None, 45)             │        11,565 │
└─────────────────────────────────┴────────────────────────┴───────────────┘
 Total params: 596,141 (2.27 MB)
 Trainable params: 596,141 (2.27 MB)
 Non-trainable params: 0 (0.00 B)

2024-11-30 22:43:57,680 - INFO - 
트랜스포머 모델 처리 시작...
2024-11-30 22:43:57,682 - INFO - 모델 학습 중...
2024-11-30 22:44:14,520 - INFO - 
=== 학습 결과 ===
2024-11-30 22:44:14,520 - INFO - 최종 훈련 손실: 304.2147
2024-11-30 22:44:14,520 - INFO - 최종 훈련 정확도: 0.0167
…
